critic.pth (torch, 740140 bytes, 18 tensors)

weight f4 [16, 2, 5, 5]
-0.019254394 -0.009853288 0.0012715977 0.00781549 0.0031035433 -0.009209236 0.0012954241 0.0059224484
0.010952165 0.0071256864 0.0012147255 -0.0010117539 0.002651149 0.015250491 0.008934479 0.0071379747
0.009588349 0.029942203 0.035962105 0.019030027 0.012224912 0.016758464 0.030455824 0.025801683
0.014833243 0.001250672 -0.047185823 0.02887313 0.040638458 0.029009987 0.008637396 -0.017824765
-0.026771437 -0.014330265 -0.005601248 -0.019521471 0.009630454 -0.03156982 0.008267628 -0.0042048506
0.01839752 -0.01253266 0.007857039 -0.04162602 0.0009616145 -0.018174674 0.020542953 -0.03546005
-0.032672588 -0.027967015 0.0130004585 0.008654442 0.009028801 -0.004914885 -0.0044234935 0.01673645
0.03362684 0.039899718 0.011577563 0.00090722594 0.016404597 0.0313187 0.029999338 0.011792838
0.0070054526 0.008023562 0.009955361 0.012596281 0.014081636 0.010922948 0.009286182 0.008524732
0.009929667 0.009715297 0.006973677 0.030607276 -0.017990809 -0.013831102 0.0030092252 0.030234925
-0.03925859 -0.0228042 -0.024556058 0.052904405 0.029275268 -0.0029349583 0.027198073 0.014815386
0.009642565 -0.01947167 -0.054106474 -0.046971448 -0.023992144 -0.031568427 -0.039370004 0.010623569
-0.009045515 0.018376201 -0.0045753247 -0.02531587 0.004995119 0.0039590704 0.0018557693 0.00032253095
-0.0072830315 0.0030865557 0.012988362 0.02584031 0.02754364 0.013355423 0.006586014 0.020415451
0.03900216 0.032898378 0.017016469 0.0039034137 0.003008772 0.011494776 0.009343608 0.012297521
0.005474715 0.003242347 0.006693981 0.016716896 0.019810036 -0.039205372 -0.021840362 -0.00748578
-0.03703512 -0.046388462 -0.05404549 -0.025188439 0.034323446 0.01706828 0.02657316 -0.033010054
0.03996618 -0.02204022 0.026561452 0.003748012 0.017511213 -0.010135794 -0.012904246 0.0513684
0.0070297737 0.008012073 0.02467469 0.0073909224 -0.00964747 0.0066732843 0.0022388247 0.0057859174
0.009389654 0.0052390127 0.004561254 0.0046824194 0.0048533604 0.008594995 0.0025646552 0.00391666
0.009583635 0.013247461 0.010625757 0.000785489 0.0005034955 0.0147184525 0.025696767 0.025398375
0.014239392 0.00681969 0.006841558 0.012857535 0.0190278 0.0144162085 0.009000617 0.044296585
-0.012841563 0.0064775716 -0.02848078 0.0017709829 0.0011462526 0.00025411198 0.018919112 -0.054873515
0.039975554 0.021979336 0.04650039 0.012101274 -0.040158477 0.016536074 0.041639753 -0.027590405
-0.022756469 0.03248177 0.0010572453 0.03870259 0.033107102 -0.008607327 -0.02851688 0.0024591894
0.0046235668 -0.0059307097 -0.016005129 -0.020633824 -0.019608648 -0.016258854 -0.032662116 -0.04372217
-0.04285576 -0.027979579 -0.0056882394 0.0014919002 -0.0068703475 -0.0016831107 0.008415119 0.019954385
0.02932038 0.046704303 0.04381045 0.024823979 0.025440605 0.024044149 0.053111445 0.039034374
0.020850891 -0.0015628642 0.0045598606 -0.0020536566 -0.0012661796 -0.0018427902 -0.0015501844 0.0004560662
-0.0018276825 -0.0014998579 0.00026869474 0.0052016443 0.002409897 -0.0017485591 -0.005275985 0.00068862346
5.1506857e-05 -0.00013578477 0.0012394864 -0.0030225278 -0.001126432 -0.003577488 -0.0006302592 -0.0008764943
-0.0035084775 -0.001279019 -0.009005934 -0.0071961656 -0.0061635147 -0.004831199 -0.0068286066 -0.0042966106
00000000: 64bb 9dbc af6f 21bc bdab a63a 8a0c 003c
00000010: d164 4b3b 56e2 16bc 38cb a93a 1911 c23b
00000020: b670 333c 977e e93b 6d37 9f3a d49c 84ba
00000030: e6be 2d3b 32dd 793c ec61 123c ace5 e93b
00000040: 7318 1d3c 5a49 f53c 004d 133d dce4 9b3c
00000050: ff4a 483c 0c49 893c 7e7e f93c 0d5e d33c
00000060: 2107 733c 97ed a33a ec45 41bd 5887 ec3c
00000070: 8374 263d 5aa6 ed3c dd83 0d3c 3e05 92bc
00000080: c64f dbbc 7dc9 6abc ac8a b7bb 7eeb 9fbc
00000090: 0dc9 1d3c 5b4f 01bd f274 073c d8c8 89bb
000000a0: 65b6 963c c955 4dbc cfba 003c 0c80 2abd
000000b0: db14 7c3a 0ee3 94bc b249 a83c 8f3e 11bd
000000c0: b1d3 05bd 151b e5bc e0ff 543c 5ccb 0d3c
000000d0: 89ed 133c 0b0d a1bb f4f2 90bb e11a 893c
000000e0: 4cbc 093d e36d 233d d2af 3d3c e7d2 6d3a
000000f0: ef62 863c 0a48 003d 2cc1 f53c bf36 413c
00000100: ff8d e53b 4275 033c cf1b 233c a260 4e3c
00000110: aab6 663c 2af6 323c 1225 183c 51ab 0b3c
00000120: 0bb0 223c e92c 1f3c 7183 e43b 1cbc fa3c
00000130: 7661 93bc d99b 62bc 6c36 453b 3caf f73c
00000140: 9ecd 20bd e0cf babc c929 c9bc 4ab2 583d
00000150: b0d2 ef3c 6e58 40bb 7ece de3c 3cbc 723c
00000160: d9fb 1d3c 0d83 9fbc c09e 5dbd 2265 40bd
00000170: 2c8b c4bc e54d 01bd 7142 21bd 7a0e 2e3c
00000180: a433 14bc b089 963c 9bec 95bb 3a63 cfbc
00000190: 18ae a33b 17bb 813b 493d f33a 5f19 a939
000001a0: 7fa6 eebb d047 4a3b 24cd 543c 0faf d33c
000001b0: 33a3 e13c b4d0 5a3c 7dcf d73b 4e3e a73c
000001c0: bbc0 1f3d 73c0 063d 1f66 8b3c 6ad0 7f3b
000001d0: d12e 453b 9654 3c3c ef15 193c 8b7b 493c
000001e0: 3d65 b33b 8e7d 543b 2f59 db3b dff1 883c
000001f0: a848 a23c d095 20bd 8fea b2bc 464b f5bb
00000200: 23b2 17bd d401 3ebd ce5e 5dbd fc57 cebc
00000210: be96 0c3d c7d2 8b3c f5af d93c 8d35 07bd
00000220: 94b3 233d b18d b4bc 6797 d93c 35a1 753b
00000230: ad73 8f3c 9a10 26bc 556c 53bc ac67 523d
00000240: 045a e63b 1245 033c 9322 ca3c 8d2f f23b
00000250: 6c10 1ebc 91ab da3b 3fb9 123b cb97 bd3b
00000260: 10d7 193c 06ac ab3b 9276 953b fb6e 993b
00000270: f008 9f3b 06d2 0c3c c613 283b 5357 803b
00000280: ae04 1d3c e10b 593c a817 2e3c 46e9 4d3a
00000290: 03fd 033a aa25 713c 0782 d23c 4110 d03c
000002a0: 574c 693c b577 df3b 262f e03b 69a8 523c
000002b0: 30e0 9b3c f631 6c3c 5377 133c 5670 353d
000002c0: 6b65 52bc cf41 d43b 8650 e9bc 5320 e83a
000002d0: db3d 963a 553a 8539 41fc 9a3c 0dc3 60bd
000002e0: 68bd 233d 020e b43c 3177 3e3d 6c44 463c
000002f0: 377d 24bd a976 873c 728e 2a3d 4605 e2bc
00000300: c66b babc 9b0b 053d 4493 8a3a 9b86 1e3d
00000310: 509b 073d bf05 0dbc 3b9c e9bc 5a2a 213b
00000320: 4a81 973b 6656 c2bb 301d 83bc 4408 a9bc
00000330: 51a2 a0bc 4a31 85bc b6c8 05bd 0516 33bd
00000340: 8589 2fbd 6e35 e5bc 6964 babb dd8b c33a
00000350: a720 e1bb d39b dcba 91df 093c 6177 a33c
00000360: 4b31 f03c 034d 3f3d 9672 333d a85b cb3c
00000370: d168 d03c 3cf8 c43c 638b 593d 82e2 1f3d
00000380: 7dcf aa3c 05d9 ccba e26a 953b a496 06bb
00000390: f0f5 a5ba c789 f1ba 8f2f cbba 2b1c ef39
000003a0: d98e efba e196 c4ba 99df 8c39 8e72 aa3b
000003b0: 5def 1d3b e82f e5ba 2ce2 acbb bd84 343a
000003c0: 1109 5838 7261 0eb9 4376 a23a 9a15 46bb
000003d0: c9a4 93ba 4a74 6abb fb37 25ba 89c4 65ba
000003e0: 7cee 65bb c2a4 a7ba a08d 13bc d0cd ebbb
000003f0: 4ff7 c9bb 094f 9ebb 81c2 dfbb 95ca 8cbb

bias f4 [16]
-0.20167062 0.020919664 0.030615766 0.010305608 -0.18833427 -0.11040964 -0.011405174 0.34276372
0.10548362 0.012441465 -0.21691954 -0.040542413 -0.11846242 -0.34806612 0.14837003 -0.05739876
00000000: be82 4ebe b75f ab3c eacd fa3c dad8 283c
00000010: b3da 40be 731e e2bd c4dc 3abc ba7e af3e
00000020: cc07 d83d 49d7 4b3c 2820 5ebe cd0f 26bd
00000030: 6d9c f2bd b935 b2be 50ee 173e f61a 6bbd

weight f4 [16]
0.73193973 0.82927686 0.81303144 0.902799 0.85477746 1.0651964 0.8532034 0.8611135
0.8560048 1.0962263 0.8802716 1.1006278 1.1119177 0.7848207 0.97044295 0.7939821
00000000: 6760 3b3f 7d4b 543f d422 503f d61d 673f
00000010: b2d2 5a3f 5b58 883f 8a6b 5a3f ef71 5c3f
00000020: 2123 5b3f 2551 8c3f 7b59 613f 5fe1 8c3f
00000030: 5253 8e3f 02ea 483f f36e 783f 6942 4b3f

bias f4 [16]
0.4532054 0.32726994 0.44915175 0.31263337 0.29110703 0.41517276 -0.16738577 0.19746462
0.009019929 0.3378454 0.3794122 0.35204127 0.3511515 0.6567163 0.11245229 0.54137766
00000000: 8a0a e83e ed8f a73e 38f7 e53e 7b11 a03e
00000010: fb0b 953e 8691 d43e 2d67 2bbe 2a34 4a3e
00000020: 53c8 133c 13fa ac3e 5142 c23e c13e b43e
00000030: 21ca b33e 8f1e 283f 634d e63d ba97 0a3f

weight f4 [32, 16, 4, 4]
0.006157135 -0.006270842 -0.007893741 -0.032635808 0.00030388677 0.06017376 0.041994005 0.013253675
0.011533618 0.024186878 0.011664727 -0.001471595 0.0040826467 0.017153544 0.06208696 0.020635575
0.018820316 0.012715293 -0.018195366 -0.008127898 0.025824584 -0.006413522 -0.0012241505 -0.0076597827
0.027407752 0.028542714 -0.0062485 0.008288624 0.011014856 -0.0076884036 0.014583741 0.012187414
0.013528074 -0.009042822 -0.0057418887 -0.029963817 -0.023306772 -0.000669746 0.036728527 0.010398522
0.0011794538 -0.0029205212 -0.01951134 0.0231769 0.015315796 -0.052881602 -0.0039123017 0.029635988
-0.002485822 -0.02376011 -0.01628365 -0.04007148 -0.00892082 -0.0023605798 0.0070704804 -0.007499943
0.017243516 -0.016862497 0.009576722 0.021437235 0.0060898336 -0.012521778 -0.029451316 -0.012522725
-0.017227938 -0.013877356 -0.0141650345 -0.0024214424 -0.00050023646 0.016136881 -0.012091756 -0.007493642
-0.021580027 0.003924214 -0.030318033 0.008055114 0.010807261 -0.011641639 0.012702032 -0.008059246
0.06057214 0.021745164 -0.052409783 -0.019439228 0.04902921 0.018847022 -0.0136763435 0.03636769
-0.014807113 0.0025338647 0.0055236146 -0.07097455 0.035943486 -0.019636992 -0.1433622 -0.09830122
-0.0021562001 -0.0004199927 0.0013528528 0.005848683 -0.0010481434 0.00080601266 0.0047946037 0.013195457
0.0010739642 0.009340293 0.017441606 0.017849866 0.0080031715 0.017348455 0.017045077 0.012242838
-0.020421749 -0.0062955446 -0.010049973 0.0016296552 -0.006589491 -0.0028862169 -0.002979666 0.015124653
0.0025829778 -0.0034342993 -0.007886486 0.0032700656 -0.0015866951 -0.013130611 -0.019878047 -0.0049143503
0.00024410608 -0.0028717609 0.00833743 0.015344345 -0.0039680456 0.0050490247 -0.010620452 0.0029012961
-0.0071049617 -0.011019114 0.030369768 0.009981396 0.0014826126 -0.009717271 -0.0067887986 -0.0071815257
0.0058420664 0.011225867 0.003251689 0.010574757 0.016778167 -0.009091573 -0.013508672 0.036948077
0.061631177 0.0022981698 0.031106658 0.030636752 -0.00037859258 -0.022893284 -0.021241542 -0.041421704
0.0041868016 -0.007358121 -0.014290432 -0.028541908 0.0046432633 -0.004660446 0.0028477735 -0.0066495454
0.02019527 0.021444514 0.041591883 0.014876836 0.021397801 0.0085110795 0.014495154 0.0051886197
0.025586786 0.024047557 -0.03137063 -0.058143776 -0.0062557333 -0.017956516 -0.06431913 -0.029212598
0.040734958 0.056741875 0.043995094 -0.021411425 0.034642875 -0.049931776 -0.04301483 0.02017702
0.04097331 -0.02813482 -0.051425636 0.055194836 -0.046835244 -0.017330986 -0.04310552 0.012119508
0.027108442 0.033563808 0.046198566 0.050451804 0.018131897 -0.009190017 -0.01816222 -0.057640083
-0.00600929 -0.020662067 -0.01758261 -0.014325564 -0.0044920323 -0.0020459993 0.0017761205 0.0072704433
-0.028740272 -0.011784896 0.009101278 0.00823722 -0.0046395096 -0.0055079376 -0.020656493 -0.0143540725
0.024385307 -0.0068847034 -0.013546632 0.021224426 -0.024631457 0.0015538255 0.026678706 -0.014997676
0.020809865 -0.026534332 0.019703373 0.011698316 0.027243357 0.024679193 -0.0005965091 0.057593625
-0.025248975 -0.008134586 0.0289517 -0.019654963 0.0070425407 -0.0055019325 0.0021942265 -0.004801503
0.03253409 0.015386799 0.0034964888 0.0052077095 -0.018406164 0.009568482 -0.006631745 0.01466913
00000000: cbc1 c93b a37b cdbb c054 01bc 20ad 05bd
00000010: fe52 9f39 c378 763d e801 2c3d f125 593c
00000020: 80f7 3c3c 8f23 c63c 691d 3f3c 89e2 c0ba
00000030: b9c7 853b 9785 8c3c e54e 7e3d f00b a93c
00000040: 102d 9a3c ce53 503c 730e 95bc e02a 05bc
00000050: 148e d33c 8628 d2bb ad73 a0ba eafe fabb
00000060: 3986 e03c 69d2 e93c 38c0 ccbb 02cd 073c
00000070: a877 343c 01ef fbbb a5f0 6e3c b8ad 473c
00000080: dba4 5d3c 5828 14bc 7426 bcbb ae76 f5bc
00000090: d8ed bebc e591 2fba a770 163d 905e 2a3c
000000a0: e797 9a3a 3766 3fbb 3fd6 9fbc 7bdd bd3c
000000b0: 1bef 7a3c 619a 58bd c432 80bb 2cc7 f23c
000000c0: 2ce9 22bb 90a4 c2bc 4a65 85bc fe21 24bd
000000d0: a228 12bc f5b3 1abb 7daf e73b 15c2 f5bb
000000e0: 4642 8d3c 3823 8abc afe7 1c3c 249d af3c
000000f0: 3a8d c73b 2528 4dbc e343 f1bc 1e2c 4dbc
00000100: 9b21 8dbc da5d 63bc 7614 68bc 10b1 1ebb
00000110: 4d22 03ba 7e31 843c 801c 46bc 3a8d f5bb
00000120: 99c8 b0bc b196 803b 865d f8bc 99f9 033c
00000130: f010 313c 93bc 3ebc 2f1c 503c ee0a 04bc
00000140: 7e1a 783d ea22 b23c a4ab 56bd 043f 9fbc
00000150: dad2 483d 1265 9a3c be12 60bc 49f6 143d
00000160: 8999 72bc 320f 263b 70ff b43b 1b5b 91bd
00000170: 7a39 133d c2dd a0bc 8acd 12be 2652 c9bd
00000180: 094f 0dbb 7732 dcb9 3552 b13a 4fa6 bf3b
00000190: db61 89ba 984a 533a 0d1c 9d3b c231 583c
000001a0: 42c4 8c3a 0708 193c b3e1 8e3c e239 923c
000001b0: bc1f 033c 591e 8e3c 1ea2 8b3c 2f96 483c
000001c0: 834b a7bc db4a cebb a4a8 24bc 289a d53a
000001d0: a8ec d7bb af26 3dbb 8046 43bb 64cd 773c
000001e0: 2d47 293b fb11 61bb 5236 01bc 994e 563b
000001f0: a7f8 cfba c621 57bc 49d7 a2bc 8f08 a1bb
00000200: baf6 7f39 2734 3cbb b799 083c d966 7b3c
00000210: 6106 82bb 4a72 a53b 6801 2ebc ac23 3e3b
00000220: bdd0 e8bb 8489 34bc 05ca f83c 0289 233c
00000230: 3954 c23a 3035 1fbc 9274 debb 0153 ebbb
00000240: ce6e bf3b b3ec 373c 4a1a 553b bf41 2d3c
00000250: 5e72 893c d2f4 14bc 7a53 5dbc de56 173d
00000260: f970 7c3d e49c 163b 64d3 fe3c edf9 fa3c
00000270: d67d c6b9 b28a bbbc be02 aebc cea9 29bd
00000280: 7031 893b 651c f1bb 6b22 6abc b8d0 e9bc
00000290: 8426 983b a8b6 98bb b6a1 3a3b 6ee4 d9bb
000002a0: 8d70 a53c 68ac af3c 405c 2a3d f9bd 733c
000002b0: 714a af3c 0e72 0b3c 157d 6d3c 4c05 aa3b
000002c0: 619b d13c 62ff c43c 7d7e 00bd 2b28 6ebd
000002d0: e5fc ccbb 8b19 93bc bfb9 83bd 424f efbc
000002e0: b3d9 263d 2b6a 683d 3334 343d 0367 afbc
000002f0: b0e5 0d3d 4385 4cbd 5230 30bd 474a a53c
00000300: a1d3 273d fe7a e6bc b0a3 52bd fb13 623d
00000310: 50d6 3fbd b6f9 8dbc 6a8f 30bd e790 463c
00000320: 8612 de3c 347a 093d b53a 3d3d 8da6 4e3d
00000330: 5889 943c ba91 16bc f0c8 94bc 0218 6cbd
00000340: 94e9 c4bb 7f43 a9bc 6809 90bc c5b5 6abc
00000350: e631 93bb 2c16 06bb b7cc e83a e63c ee3b
00000360: b870 ebbc 7015 41bc 871d 153c 68f5 063c
00000370: 0707 98bb ee7b b4bb ce37 a9bc 582d 6bbc
00000380: b2c3 c73c 1499 e1bb b1f2 5dbc d9de ad3c
00000390: e9c7 c9bc bba9 cb3a 4d8d da3c d0b8 75bc
000003a0: 7379 aa3c 875e d9bc f868 a13c 4baa 3f3c
000003b0: 762d df3c 052c ca3c 0c5f 1cba 4be7 6b3d
000003c0: f0d6 cebc ed46 05bc 1e2c ed3c 7203 a1bc
000003d0: 1dc5 e63b 8e49 b4bb 03cd 0f3b ed55 9dbb
000003e0: 7742 053d ea18 7c3c 5925 653b 6fa5 aa3b
000003f0: 86c8 96bc 1fc5 1c3c 1c4f d9bb ca56 703c

bias f4 [32]
-0.06812803 0.010233127 0.024099626 0.02114833 -0.009650723 -0.048177686 -0.07798411 -0.042614263
-0.04662602 -0.06516364 0.039026406 -0.043975357 -0.017183134 -0.04250795 -0.029427705 0.057794664
-0.020545447 0.05814131 0.04373734 -0.053048387 -0.023599168 -0.09497884 -0.00760964 -0.02705449
-0.035910845 -0.060970053 0.021227634 -0.0058281417 0.014835326 -0.05528136 0.02884581 0.036671303
00000000: b586 8bbd d8a8 273c 946c c53c 433f ad3c
00000010: 111e 1ebc f755 45bd 22b6 9fbd 4b8c 2ebd
00000020: edfa 3ebd 8474 85bd 27da 1f3d 811f 34bd
00000030: a5c3 8cbc d11c 2ebd 5f12 f1bc 19ba 6c3d
00000040: ed4e a8bc 9525 6e3d ed25 333d 4449 59bd
00000050: 0b53 c1bc 4484 c2bd 495a f9bb 61a1 ddbc
00000060: 4017 13bd bcbb 79bd 93e5 ad3c fff9 bebb
00000070: de0f 733c b56e 62bd 0c4e ec3c a634 163d

weight f4 [32]
0.9972181 0.95756364 0.9445104 0.9140444 0.9327912 0.95145744 0.9232139 0.9729893
0.91514474 0.98898953 0.93130624 0.9340868 0.92976964 1.0074039 0.78991663 0.9898052
0.9040324 0.9484878 0.9302018 0.93189126 0.9120622 0.8650194 0.9661542 0.83759683
0.810718 0.92870605 0.8611816 1.0461215 0.99165404 0.89921296 0.93812203 0.86877674
00000000: af49 7f3f e422 753f 6fcb 713f d0fe 693f
00000010: 67cb 6e3f b792 733f bf57 6c3f d415 793f
00000020: ed46 6a3f 6b2e 7d3f 166a 6e3f 5020 6f3f
00000030: 6205 6e3f 9cf2 803f fa37 4a3f e063 7d3f
00000040: ab6e 673f 19d0 723f b521 6e3f 6d90 6e3f
00000050: e97c 693f e971 5d3f e255 773f bf6c 563f
00000060: 378b 4f3f aebf 6d3f 6676 5c3f 4fe7 853f
00000070: 0add 7d3f d232 663f c428 703f 2768 5e3f

bias f4 [32]
0.331586 0.3827673 0.32566017 0.46904874 0.34543392 0.29697427 0.3757437 0.2896909
0.32982114 0.30054942 0.5005489 0.40048695 0.17631097 0.32498452 0.5633589 0.2875378
0.41486788 0.32505605 0.41719353 0.3371734 0.35952374 0.5734366 0.34457514 0.46066144
0.49890226 0.3710279 0.25490284 0.25024468 0.32731387 0.40902168 0.36377126 0.44974867
00000000: a4c5 a93e 13fa c33e eebc a63e 2827 f03e
00000010: b7dc b03e 030d 983e 7a61 c03e 5e52 943e
00000020: 51de a83e 9de1 993e f923 003f a00c cd3e
00000030: dd8a 343e 5f64 a63e 4a38 103f 2838 933e
00000040: 9069 d43e bf6d a63e 649a d53e fea1 ac3e
00000050: 7f13 b83e becc 123f 276c b03e d1db eb3e
00000060: 1e70 ff3e 5ef7 bd3e a082 823e 1220 803e
00000070: af95 a73e 4a6b d13e 3a40 ba3e 7545 e63e

weight f4 [64, 32, 4, 4]
-0.010537304 0.018756352 0.03143374 0.01652106 0.052451275 -0.011897701 -0.038269654 -0.015985643
-0.020741722 0.002087321 -0.0001727937 -0.0063512838 0.043677296 -0.009903281 -0.01312348 -0.032844275
-0.024026215 0.031342357 0.01475426 0.027283836 0.0043246225 -0.026525406 -0.0434226 -0.019440293
0.02894734 -0.027285786 -0.012914976 0.0055105234 0.007244631 -0.0028199544 0.0029279024 0.009984305
0.006424214 0.030860329 -0.028558332 -0.009886294 -0.02222102 0.0050932225 -0.0010650749 0.011962727
-0.020389013 -0.052982237 -0.020508243 -0.003508605 -0.0073794057 -0.005433805 0.007753853 -0.021476418
0.032621603 0.042991225 -0.028072024 0.003747183 0.048463643 0.03403824 -0.020532377 -0.0093258
0.018142805 -0.014686432 -0.011112052 -0.018475154 0.036170796 -0.01565462 -0.037352107 -0.019174559
-0.008717512 0.015505904 -0.004598589 0.041546118 0.00066736696 0.026595233 0.008249559 -0.0391867
-0.003734698 -0.0035890548 -0.032113254 -0.035759173 0.006649991 -0.003964641 0.02335901 0.0046065217
0.009093349 -0.02808486 0.031414103 -0.021285439 0.010480748 0.0075881495 0.02172353 0.0027622925
0.022199184 0.00994803 0.033240553 -0.015855813 -0.009127583 0.024413627 0.019829867 -0.007257447
0.004330109 0.029296556 -0.0014759355 0.0036754187 -0.02211835 -0.034240525 -0.019117853 -0.015624714
-0.007289989 -0.034643214 -0.0073217144 -0.030315947 -0.0057238624 -0.00073794933 0.01777535 -0.006394656
0.008423717 -0.005199702 -0.006280201 -0.04950598 -0.021082269 -0.013070679 -0.0065160943 -0.018550383
-0.0071811574 -0.020587908 -0.0012441316 -0.007921321 0.014669115 -0.007884079 -0.02183761 0.052750383
-0.02274267 -0.010632237 -0.013124566 0.019548599 0.03758381 -0.025764996 0.0016848025 -0.016457256
0.0008033248 0.0024144684 0.0030289607 0.0003879897 0.030092211 -0.030564433 -0.022507368 0.030134685
0.0013163255 0.034917608 -0.002971578 0.0495988 -0.052281413 -0.010170239 -0.029113052 0.0012098149
0.023329815 0.0070224167 0.0026773964 -0.024111895 0.046515018 -0.004877153 -0.002567502 0.0016351584
0.020610657 -0.0087616565 -0.0080802515 0.021343851 0.0020387084 0.027581874 0.048562843 0.037875425
-0.00040121106 -0.011196502 -0.0041340664 0.02104182 -0.0101291975 0.009503973 0.00901569 0.04434191
0.049040083 -0.017612359 -0.0015120006 -0.021129204 -0.013959425 0.0013380281 0.0037104562 0.0324558
-0.03512402 0.0268043 -0.00016172395 0.008317707 0.00086085824 0.011677786 0.0113416435 -0.035171393
-0.040155258 -0.018924464 0.0005030837 0.016829807 -0.047502927 -0.008667945 0.018057395 0.025092293
-0.004400051 0.00053217117 -0.012380593 0.017839644 -0.0028810399 0.025435722 -0.008514911 0.007601263
-0.0024392495 0.045479827 -0.021903984 -0.044817217 0.03774948 0.069028035 0.0137485955 -0.017576007
0.016499247 -0.0054817945 0.006686129 0.0040337835 0.023508113 -0.019755552 0.0347236 0.0037396704
0.021367928 0.026971094 0.024206705 0.017443864 0.016306363 0.047197957 -0.0036207782 0.015259202
0.0267542 0.042644702 0.033252787 0.020277958 0.02725984 0.0125425365 0.015544405 0.014444961
0.0043060025 -0.025549212 0.06850529 0.02029415 0.023803141 -0.0038701121 -0.0208039 -0.007167846
0.0063393074 0.0441405 0.0063972166 0.0057963 -0.008605009 0.038040243 -0.009365604 -0.007078891
00000000: a8a4 2cbc eca6 993c aac0 003d 2d57 873c
00000010: 26d7 563d 93ee 42bc a4c0 1cbd 53f4 82bc
00000020: 8bea a9bc 6fcb 083b f52f 35b9 6e1e d0bb
00000030: f7e6 323d 5f41 22bc dd03 57bc b887 06bd
00000040: a0d2 c4bc d860 003d dabb 713c 5a82 df3c
00000050: 90b5 8d3b cf4b d9bc e5db 31bd 4041 9fbc
00000060: f922 ed3c 7186 dfbc 5699 53bc 9f91 b43b
00000070: 5f64 ed3b fcce 38bb 0de2 3f3b 3695 233c
00000080: 3782 d23b cdce fc3c 2af3 e9bc 1ffa 21bc
00000090: db08 b6bc 0ce5 a63b fc99 8bba 50ff 433c
000000a0: dc06 a7bc e703 59bd e700 a8bc a0f0 65bb
000000b0: f1ce f1bb 0f0e b2bb 0914 fe3b 50ef afbc
000000c0: 3b9e 053d 9117 303d 4df7 e5bc 4c93 753b
000000d0: d081 463d ae6b 0b3d 8433 a8bc 3ecb 18bc
000000e0: 38a0 943c 5c9f 70bc 530f 36bc 3559 97bc
000000f0: d427 143d 1e3e 80bc 86fe 18bd f713 9dbc
00000100: e5d3 0ebc 7a0c 7e3c c3af 96bb 432c 2a3d
00000110: 3df2 2e3a 3fde d93c 2929 073c 3c82 20bd
00000120: d6c1 74bb 5936 6bbb 3089 03bd 3678 12bd
00000130: 2be8 d93b d2e9 81bb 655b bf3c 4ef2 963b
00000140: 45fc 143c 3812 e6bc 13ac 003d cd5e aebc
00000150: 71b7 2b3c 03a6 f83b 8bf5 b13c 9407 353b
00000160: 10db b53c 10fd 223c 3f27 083d 0de4 81bc
00000170: dc8b 15bc 16ff c73c 3f72 a23c e1cf edbb
00000180: 96e3 8d3b 55ff ef3c 2d74 c1ba 4bdf 703b
00000190: 8b31 b5bc cb3f 0cbd 0b9d 9cbc cdfe 7fbc
000001a0: dce0 eebb 0be6 0dbd feea efbb 2659 f8bc
000001b0: 3d8f bbbb f172 41ba 9c9d 913c 438a d1bb
000001c0: a103 0a3c 4362 aabb 25ca cdbb c8c6 4abd
000001d0: b9b4 acbc 6726 56bc f684 d5bb f9f6 97bc
000001e0: ea4f ebbb f9a7 a8bc 2112 a3ba 6ec8 01bc
000001f0: ba56 703c 392c 01bc cae4 b2bc c910 583d
00000200: d64e babc d632 2ebc 6b08 57bc 6224 a03c
00000210: 7bf1 193d 1d11 d3bc 97d4 dc3a 5ed1 86bc
00000220: 3796 523a 0f3c 1e3b 8781 463b 196b cb39
00000230: f183 f63c 4362 fabc 5f61 b8bc 04dd f63c
00000240: 8e88 ac3a c405 0f3d cebe 42bb 1c28 4b3d
00000250: 0925 56bd 13a1 26bc 7f7e eebc a792 9e3a
00000260: 2b1e bf3c 4d1c e63b 4277 2f3b 4f86 c5bc
00000270: 8886 3e3d 86d0 9fbb 8943 28bb d052 d63a
00000280: aed7 a83c 0d8d 0fbc 0863 04bc 4dd9 ae3c
00000290: da9b 053b 62f3 e13c d5e9 463d 4323 1b3d
000002a0: a359 d2b9 8871 37bc 1077 87bb e55f ac3c
000002b0: eff4 25bc 8db6 1b3c 8bb6 133c dd9f 353d
000002c0: 41de 483d cb47 90bc 522e c6ba 2717 adbc
000002d0: 12b6 64bc c660 af3a 202b 733b 5ff0 043d
000002e0: 34de 0fbd b194 db3c 7194 29b9 fe46 083c
000002f0: 38ab 613a 2f54 3f3c 4dd2 393c e10f 10bd
00000300: d779 24bd 7a07 9bbc 60e1 033a aade 893c
00000310: 6e92 42bd ff03 0ebc 1aed 933c 5a8e cd3c
00000320: 4e2e 90bb 6781 0b3a f9d7 4abc 7224 923c
00000330: d4cf 3cbb 935e d03c 2082 0bbc 0414 f93b
00000340: d1db 1fbb 0e49 3a3d fc6f b3bc 4292 37bd
00000350: 339f 1a3d 925e 8d3d ca41 613c 8ffb 8fbc
00000360: 6e29 873c a0a0 b3bb 5117 db3b d42d 843b
00000370: 1694 c03c 65d6 a1bc 553a 0e3d 4215 753b
00000380: cb0b af3c 7cf2 dc3c 244d c63c 6fe6 8e3c
00000390: ec94 853c a552 413d 944a 6dbb bb01 7a3c
000003a0: a02b db3c 36ac 2e3d 1334 083d f61d a63c
000003b0: 0750 df3c 367f 4d3c f6ad 7e3c 8faa 6c3c
000003c0: 5e19 8d3b 954c d1bc 804c 8c3d eb3f a63c
000003d0: cefe c23c b5a1 7dbb f16c aabc 40e0 eabb
000003e0: f7b9 cf3b abcc 343d be9f d13b e3ee bd3b
000003f0: 06fc 0cbc 16d0 1b3d 3172 19bc 0bf6 e7bb

bias f4 [64]
-0.035455193 -0.044158068 -0.036310133 0.0029436694 -0.011483893 0.010000509 -0.047086414 -0.031068517
-0.024821803 0.04023867 0.014343277 0.0013129986 0.01066724 -0.028557545 -0.050393943 -0.039854415
0.009342846 0.027181597 -0.013908838 -0.015135278 0.010258894 -0.022508565 0.021104176 0.0330158
-0.02770019 0.0070743468 -0.0106618395 -0.011894937 -0.05148254 0.016102402 -0.04717782 -0.026674926
0.028755 -0.020097055 -0.015842944 -0.023751687 -0.011186832 0.005557873 -0.0041767224 0.033353884
-0.04581868 0.0048936456 -0.03972507 -0.0442699 0.017574318 0.025011001 0.030808523 0.010577728
-0.050966818 0.015548064 0.012824029 -0.049595162 -0.0062093944 0.018394722 -0.05277944 0.029340887
0.010771462 0.020630814 -0.02101265 0.036649983 0.00042209288 0.02697835 -0.014237806 -0.015169225
00000000: 7739 11bd 17df 34bd efb9 14bd 94ea 403b
00000010: f026 3cbc 2dd9 233c afdd 40bd 6783 febc
00000020: 1857 cbbc 4ed1 243d 1000 6b3c ec18 ac3a
00000030: a6c5 2e3c 83f1 e9bc e169 4ebd 623e 23bd
00000040: bd12 193c f1ab de3c e5e1 63bc f5f9 77bc
00000050: ec14 283c e263 b8bc aae2 ac3c 933b 073d
00000060: 82eb e2bc eccf e73b ffae 2ebc fbe2 42bc
00000070: 5bdf 52bd 2fe9 833c 883d 41bd 6085 dabc
00000080: 9b8f eb3c 94a2 a4bc 10c9 81bc e692 c2bc
00000090: f948 37bc d11e b63b e3dc 88bb 159e 083d
000000a0: 5eac 3bbd e05a a03b c1b6 22bd 5b54 35bd
000000b0: 04f8 8f3c dfe3 cc3c 2862 fc3c 354e 2d3c
000000c0: 95c2 50bd 4fbd 7e3c e01b 523c 4c24 4bbd
000000d0: 2d78 cbbb 87b0 963c 412f 58bd 4d5c f03c
000000e0: c97a 303c f401 a93c b922 acbc 4b1e 163d
000000f0: 594c dd39 b301 dd3c b045 69bc 5788 78bc

weight f4 [64]
0.91694766 0.98969084 0.9158779 0.9340346 0.83118784 0.9416103 0.94272035 0.8479671
0.9635147 0.94338125 1.0050758 0.9389336 0.964081 0.9007852 0.8937575 1.0276208
0.94725126 0.9440298 0.9767628 0.9350564 1.0202249 0.91370827 0.9131959 0.95354915
0.9556488 0.89900243 1.0101916 0.9696436 0.9393598 0.9353363 0.96154064 0.99658424
0.933121 1.0119652 0.8625469 0.9655981 0.9072264 0.91258603 0.914598 0.9767207
0.9441357 0.9342885 0.9757368 0.91109836 0.9901248 1.0330535 0.94974405 0.9463539
0.9518776 0.9208544 0.826267 0.9792151 0.8885518 0.93309647 0.91423756 0.9565075
0.89685524 0.94853956 0.9663118 0.97861725 0.8880875 0.9822108 0.91271454 0.93939465
00000000: 15bd 6a3f 615c 7d3f f976 6a3f e41c 6f3f
00000010: bac8 543f 5f0d 713f 1f56 713f 5f14 593f
00000020: e6a8 763f 6f81 713f 53a6 803f f45d 703f
00000030: 03ce 763f dc99 663f 4bcd 643f 1489 833f
00000040: 0f7f 723f f0ab 713f 200d 7a3f db5f 6f3f
00000050: bb96 823f c9e8 693f 35c7 693f cc1b 743f
00000060: 66a5 743f 0625 663f f54d 813f 903a 783f
00000070: e279 703f 3372 6f3f 8727 763f 2520 7f3f
00000080: 05e1 6e3f 1388 813f e0cf 5c3f 7031 773f
00000090: fd3f 683f 3d9f 693f 1823 6a3f 5e0a 7a3f
000000a0: e1b2 713f 882d 6f3f e3c9 793f be3d 693f
000000b0: d278 7d3f 193b 843f 6d22 733f 4044 723f
000000c0: 40ae 733f 1dbd 6b3f 3c86 533f d7ad 7a3f
000000d0: 2178 633f 69df 6e3f 790b 6a3f addd 743f
000000e0: 4e98 653f 7dd3 723f 3660 773f a986 7a3f
000000f0: b459 633f 2b72 7b3f a9a7 693f 2b7c 703f

bias f4 [64]
0.41115203 0.3530607 0.34819055 0.37987262 0.4040901 0.3757713 0.24241361 0.3956414
0.31487694 0.33341342 0.2552292 0.32061234 0.32850364 0.46026948 0.33942926 0.28509107
0.42689914 0.38472047 0.32913774 0.36333913 0.27104253 0.3815119 0.35869 0.35070804
0.28924927 0.3385512 0.2872483 0.33043104 0.37417006 0.40546048 0.30052164 0.27780908
0.33836842 0.3139052 0.45929766 0.3244834 0.33748296 0.3241031 0.48044828 0.31102914
0.3752138 0.39754507 0.28657475 0.3466955 0.37121397 0.2176697 0.29126686 0.31547472
0.29917598 0.3419953 0.5185732 0.30139112 0.428265 0.38919833 0.3912472 0.52550906
0.48962444 0.3992363 0.3479156 0.2821222 0.4364499 0.32993692 0.41817272 0.41660228
00000000: 8582 d23e 5fc4 b43e 0846 b23e aa7e c23e
00000010: e6e4 ce3e 1965 c03e 463b 783e 8291 ca3e
00000020: 8d37 a13e 2ab5 aa3e 67ad 823e 4d27 a43e
00000030: a131 a83e 71a8 eb3e acc9 ad3e 75f7 913e
00000040: 8692 da3e 15fa c43e be84 a83e 9607 ba3e
00000050: 16c6 8a3e 8755 c33e 37a6 b73e 0190 b33e
00000060: 7b18 943e 9556 ad3e 3612 933e 422e a93e
00000070: 3893 bf3e 8498 cf3e f9dd 993e fe3c 8e3e
00000080: a03e ad3e 2fb8 a03e 1029 eb3e b022 a63e
00000090: 91ca ac3e d7f0 a53e 51fd f53e 363f 9f3e
000000a0: 061c c03e 078b cb3e edb9 923e 1382 b13e
000000b0: c20f be3e cee4 5e3e ee20 953e e785 a13e
000000c0: 982d 993e 021a af3e 37c1 043f f04f 9a3e
000000d0: 8d45 db3e 0145 c73e 8e51 c83e c387 063f
000000e0: 0eb0 fa3e b368 cc3e fe21 b23e 5272 903e
000000f0: 5c76 df3e 7eed a83e bc1a d63e e54c d53e

weight f4 [128, 64, 4, 4]
0.033254415 -0.011405414 0.024110042 0.013229951 -0.039248873 -0.023926089 -0.024593022 -0.003943732
0.0069350987 0.00028712233 -0.02505602 -0.03222702 0.03554544 0.004716207 -0.034037877 -0.010283497
0.008736675 0.015282599 0.024473697 0.02707409 0.0063496386 0.04399954 -0.027042871 0.01252259
0.043257188 -0.013195821 0.006815548 -0.008751738 -0.023458805 -0.022773456 -0.033405844 -0.023420975
-0.010985649 0.018333737 0.009628163 0.013766803 0.0068463264 -0.019522205 0.00467396 -0.010510781
0.035112087 0.008923616 0.0015606326 -0.01055119 -0.027911238 0.025950488 0.0035562683 -0.008796793
-0.005311114 -0.029701667 0.02175642 -0.025630709 0.0023894655 0.014929515 0.027835118 -0.00463683
-0.042565223 -0.0011714089 0.020899057 0.022706613 -0.00521438 0.009538757 -0.015274045 0.013970525
-0.021415 0.025537241 0.008977688 -0.0113264965 -0.0044916277 0.0128693255 -0.02407074 -0.014560657
-0.014307189 0.011733037 0.015052617 0.031755436 0.016322521 0.01730966 0.014629296 -0.0017377574
0.016614417 0.027764497 0.0035962905 -0.025909465 -0.02973068 0.00081428996 -0.022790082 -0.005271485
-8.176204e-06 -0.0046122135 0.030909061 -0.0014067466 0.032694086 -0.012947174 0.051853675 -0.01142792
0.010287926 -0.043888297 -0.0016087043 0.014067515 0.008884613 0.02323243 -0.009896874 0.019929817
-0.025105288 -0.0034562263 0.00073007075 -0.00092452415 -0.015099658 0.0045668003 -0.00013573871 0.0017818111
0.050776858 0.008617177 -0.02691654 0.010770122 -0.026202247 0.02148023 0.029165056 -0.03178488
0.007852665 -0.0475849 -0.01544039 0.032014012 0.042001408 -0.024497913 -0.010847892 -0.023516743
-0.004273378 0.009501898 -0.03548956 -0.007210144 0.02445261 0.008649581 -0.0011658059 0.007891261
-0.045686964 -0.0072010136 -0.046991333 0.011283364 -0.02319702 0.05336473 -0.026177876 -0.017244197
-0.009506123 0.019750305 -0.027174257 -0.0079175085 0.050591573 0.001794042 -0.030522298 0.04152642
0.021966508 0.018166106 -0.0016490014 0.036349475 0.009473653 0.010760692 0.013802469 0.009707516
0.031439036 -0.015124302 -0.0050321594 0.0099281855 0.012990961 -0.011980698 -0.018400853 0.016748056
0.0069954554 0.049479123 0.0004162079 -0.023035536 -0.018527431 -0.037675656 -0.013473437 0.020355107
-0.0052306154 0.016075123 0.037666023 -0.01881412 0.01897884 -0.00766629 -0.019588638 0.025988791
0.05801881 -0.034334958 -0.015680557 0.03960273 -0.062903084 0.040452097 -0.0050335033 -0.0051267147
-0.001125429 -0.01394181 -0.013020603 -0.005377096 0.0016092014 0.038581613 0.008821029 0.013640327
-0.014406513 -0.016809829 -0.0568054 -0.015823921 0.031194726 -0.021245554 0.004297375 -0.033957127
-0.009181101 -0.008561848 -0.007913594 0.048697736 0.0048384443 -0.027014257 -0.017200321 0.00087967893
-0.009739035 0.025140908 0.023717515 0.025440628 0.01979207 0.04335083 0.042933393 -0.015174828
0.006966547 -0.021375963 -0.016247656 -0.013896511 -0.026693866 -0.03288928 -0.0042886403 0.0061290334
-0.017501418 -0.021366782 0.00834714 0.014877739 -0.013246304 0.00422122 -4.655842e-05 0.005150159
0.023878174 -0.022348057 -0.044625748 -0.016190607 0.00898475 0.013466735 -0.0006534292 -0.024952147
0.02702082 0.036030754 -0.006541915 -0.014608498 0.01810309 0.019858876 -0.0033398992 0.0004035845
00000000: c835 083d c6dd 3abc 6c82 c53c 70c2 583c
00000010: 6dc3 20bd a500 c4bc 4e77 c9bc 6c3a 81bb
00000020: d33f e33b e888 9639 4842 cdbc 7b00 04bd
00000030: 1898 113d 698a 9a3b 4d6b 0bbd 1d7c 28bc
00000040: 4524 0f3c de63 7a3c 107d c83c 7bca dd3c
00000050: a110 d03b dd38 343d 0389 ddbc 8d2b 4d3c
00000060: 732e 313d 4933 58bc f654 df3b 7363 0fbc
00000070: ae2c c0bc 668f babc 91d4 08bd 58dd bfbc
00000080: 27fd 33bc a230 963c 71bf 1d3c 288e 613c
00000090: 2657 e03b 08ed 9fbc 0528 993b 6935 2cbc
000000a0: b1d1 0f3d 5c34 123c 248e cc3a e6de 2cbc
000000b0: 1ca6 e4bc 1e96 d43c 4810 693b 6d20 10bc
000000c0: da08 aebb e950 f3bc 853a b23c 7ef7 d1bc
000000d0: 9498 1c3b ed9a 743c 7906 e43c 8df0 97bb
000000e0: df58 2ebd f689 99ba 8034 ab3c 3803 ba3c
000000f0: 64dd aabb 7248 1c3c fd3f 7abc a1e4 643c
00000100: 836e afbc 7a33 d13c 2717 133c c592 39bc
00000110: 812e 93bb ddd9 523c 0030 c5bc d28f 6ebc
00000120: b368 6abc ed3b 403c 409f 763c fd11 023d
00000130: cfb6 853c fdcc 8d3c b7af 6f3c 76c5 e3ba
00000140: f51a 883c 5f72 e33c beaf 6b3b 1640 d4bc
00000150: c18d f3bc 1376 553a 44b2 babc 6cbc acbb
00000160: 872c 09b7 0d22 97bb 0035 fd3c 9562 b8ba
00000170: 3cea 053d 6220 54bc 8564 543d 2c3c 3bbc
00000180: b08e 283c 37c4 33bd 29db d2ba 6f7b 663c
00000190: c590 113c f051 be3c 8026 22bc db43 a33c
000001a0: 9ba9 cdbc db81 62bb 3862 3f3a c45b 72ba
000001b0: 8e64 77bc 19a5 953b 1555 0eb9 a98b e93a
000001c0: 65fb 4f3d 0f2f 0d3c 1380 dcbc 2a75 303c
000001d0: 18a6 d6bc 4ff7 af3c 8eeb ee3c dd30 02bd
000001e0: 77a8 003c 62e8 42bd b1f9 7cbc 2021 033d
000001f0: ab09 2c3d d9af c8bc 5bbb 31bc 2fa6 c0bc
00000200: b107 8cbb d9ad 1b3c 805d 11bd 1243 ecbb
00000210: d750 c83c f9b6 0d3c f4cd 98ba 594a 013c
00000220: 4122 3bbd 7bf6 ebbb fc79 40bd dcdd 383c
00000230: ad07 bebc fa94 5a3d fc72 d6bc b443 8dbc
00000240: 92bf 1bbc 64cb a13c 8c9c debc 70b8 01bc
00000250: 1c39 4f3d 0f26 eb3a e609 fabc 9b17 2a3d
00000260: 1bf3 b33c 16d1 943c 4e23 d8ba 30e3 143d
00000270: 6137 1b3c 9d4d 303c c023 623c 460c 1f3c
00000280: 38c6 003d eccb 77bc d0e4 a4bb d4a9 223c
00000290: 0ad8 543c b14a 44bc 63bd 96bc 3833 893c
000002a0: 223a e53b 9faa 4a3d 7b36 da39 05b5 bcbc
000002b0: d7c6 97bc ca51 1abd b1bf 5cbc c1bf a63c
000002c0: 9565 abbb faaf 833c b047 1a3d 1220 9abc
000002d0: 8379 9b3c 8035 fbbb 5a78 a0bc 72e6 d43c
000002e0: 22a5 6d3d d0a2 0cbd 8374 80bc 7936 223d
000002f0: 55d3 80bd 19b1 253d 16f0 a4bb 00fe a7bb
00000300: 2183 93ba 306c 64bc 5e54 55bc 5a32 b0bb
00000310: d7eb d23a c107 1e3d 1486 103c ae7b 5f3c
00000320: 4c09 6cbc c4b4 89bc c7ac 68bd 2ba1 81bc
00000330: 158c ff3c 280b aebc ffd0 8c3b a116 0bbd
00000340: 546c 16bc fe46 0cbc 05a8 01bc 4777 473d
00000350: d08b 9e3b 014d ddbc b0e7 8cbc 419a 663a
00000360: 7990 1fbc 4ef4 cd3c 3c4b c23c dd68 d03c
00000370: fb22 a23c a490 313d edda 2f3d d79f 78bc
00000380: a247 e43b a51c afbc ce19 85bc 31ae 63bc
00000390: 18ad dabc e9b6 06bd b987 8cbb 0fd6 c83b
000003a0: 225f 8fbc 6409 afbc 71c2 083c c3c1 733c
000003b0: 0707 59bc 2952 8a3b b947 43b8 aac2 a83b
000003c0: 299c c33c 4613 b7bc 7dc9 36bd 2aa2 84bc
000003d0: c634 133c 95a3 5c3c e44a 2bba 7268 ccbc
000003e0: c45a dd3c fc94 133d 8f5d d6bb 7b58 6fbc
000003f0: ee4c 943c 15af a23c 36e2 5abb 3298 d339

bias f4 [128]
-0.028463094 -0.0587823 -0.04883385 0.012414157 -0.009414233 -0.05928317 -0.007855867 0.009478674
0.002208887 -0.035242748 0.007155993 -0.003560462 -0.0038214466 -0.00033307134 0.047905058 -0.030310852
-0.03855839 -0.008139756 -0.04569723 -0.010694876 -0.02294642 -0.009865554 -0.017576165 0.0029069833
0.014058995 0.015221652 -0.031105777 -0.03963823 -0.025359888 0.017176397 0.0048167687 -0.023083879
-0.0068127606 -0.02300238 -0.03192506 0.021819385 -0.034492195 0.012429294 -0.020237794 -0.026237074
-0.0003767844 0.030676534 -0.052086264 -0.0067560156 -0.031021336 -0.00044987502 -0.0027578608 0.0036436738
0.0030793175 0.03274523 0.00053647225 -0.023565592 0.005113225 -0.033479962 0.005286424 0.002904394
0.025246006 0.0069013294 -0.049070533 0.012292176 -0.0075893966 -0.0041809333 -0.0020159695 0.020956164
-0.019899113 -0.016492588 -0.007403287 -0.0012439125 -0.035434704 -0.028570086 0.016842483 -0.019971717
-0.036621504 -0.024628429 -0.02282802 0.002155458 -0.021744465 0.008202179 -0.008626288 0.013475147
0.0053655673 -0.035439752 -0.039413556 -0.002927069 -0.035193637 0.034017123 -0.0075545865 0.011663319
-0.01345266 0.034975648 0.010576416 -0.012422411 -0.01718649 -0.029814089 0.00055983005 -0.0075947787
0.0131365275 -0.013997591 -0.020425892 -0.0038010767 0.0021943247 -0.019464042 -0.035432674 -0.053654935
0.014155669 -0.023483079 0.023826208 0.009348437 -0.00019587846 0.0057925237 -0.02253575 0.013972215
-0.02916958 -0.03529807 -0.0033078364 0.003019552 0.0028733616 0.017109854 -0.006169891 -0.0129631795
-0.0123280445 -0.027018249 0.009128379 0.0008044972 0.008431387 -0.015687412 -0.014771735 0.020449791
00000000: 6f2b e9bc b6c5 70bd 0106 48bd c064 4b3c
00000010: 283e 1abc e9d2 72bd e5b5 00bc 714c 1b3c
00000020: f9c2 103b b35a 10bd d27c ea3b a456 69bb
00000030: 3c71 7abb 14a0 aeb9 1838 443d 774e f8bc
00000040: 67ef 1dbd 9c5c 05bc 052d 3bbd 9039 2fbc
00000050: 21fa bbbc 22a3 21bc e4fb 8fbc 1683 3e3b
00000060: b357 663c 3c64 793c 8bd1 febc b25b 22bd
00000070: 8abf cfbc 84b5 8c3c fcd5 9d3b 671a bdbc
00000080: 943d dfbb 7d6f bcbc dac3 02bd 91be b23c
00000090: b047 0dbd 3da4 4b3c bbc9 a5bc 22ef d6bc
000000a0: 258b c5b9 5b4d fb3c 6858 55bd 9161 ddbb
000000b0: 7520 febc 34dd ebb9 3abd 34bb b4ca 6e3b
000000c0: 60ce 493b dd1f 063d 0ba2 0c3a a10c c1bc
000000d0: d78c a73b 4922 09bd bd39 ad3b a557 3e3b
000000e0: b6d0 ce3c 8c24 e23b 2ffe 48bd 1f65 493c
000000f0: 79b0 f8bb 3600 89bb 5b1e 04bb 43ac ab3c
00000100: 7703 a3bc 771b 87bc 4697 f2bb c70a a3ba
00000110: fb23 11bd d00b eabc 3ff9 893c ba9b a3bc
00000120: 6e00 16bd 8fc1 c9bc d401 bbbc 9642 0d3b
00000130: 7321 b2bc 6f62 063c 4655 0dbc ddc6 5c3c
00000140: a4d1 af3b 4629 11bd 1c70 21bd 12d4 3fbb
00000150: 3427 10bd 8a55 0b3d 778c f7bb 8117 3f3c
00000160: 8c68 5cbc a042 0f3d b448 2d3c 5e87 4bbc
00000170: afca 8cbc ad3c f4bc 8fc1 123a 9fdd f8bb
00000180: 973a 573c 2756 65bc 3354 a7bc 7c1b 79bb
00000190: a9ce 0f3b 0e73 9fbc da21 11bd 47c5 5bbd
000001a0: 2eed 673c 965f c0bc 2e2f c33c 302a 193c
000001b0: b964 4db9 36cf bd3b e59c b8bc b8eb 643c
000001c0: 0bf5 eebc b694 10bd 49c8 58bb ade3 453b
000001d0: 024f 3c3b f729 8c3c cc2c cabb 8463 54bc
000001e0: 91fb 49bc 6055 ddbc 328f 153c e5e4 523a
000001f0: cd23 0a3c e382 80bc 2605 72bc 5286 a73c

weight f4 [128]
1.1540852 1.1419184 1.0796092 1.0354544 1.1788859 1.0942079 1.0865136 1.206504
1.222884 1.0832239 1.0870568 1.0506482 1.139635 1.1625658 1.2067908 1.1063522
1.1413368 1.0584296 1.110627 1.1290678 1.0659326 1.2025292 1.204994 1.0890247
1.0886422 1.170001 1.0979029 1.0789055 1.0792042 1.1099781 1.071789 1.0782374
1.0593331 1.1007916 1.1923306 1.0942944 1.0836644 1.1614504 1.108714 1.1293305
1.1429787 1.1963383 1.1042893 1.1479025 1.1265118 1.0808184 1.0935024 1.0575905
1.0631073 1.2212595 1.0649958 1.1774912 1.0600793 1.1488395 1.2148099 1.0699435
1.0753913 1.1943817 1.1586732 1.094787 1.099382 1.1034753 1.0918337 1.1047691
1.0834332 1.1216197 1.0773731 1.1239117 1.1766921 1.0523678 1.1507291 1.2011278
1.0716482 1.1106386 1.0815102 1.0902964 1.1554343 1.1305051 1.1788629 1.0970627
1.2578613 1.0837681 1.1253295 1.0933193 1.0903013 1.1080331 1.2431337 1.1873914
1.2039447 1.1543007 1.0890522 1.1052389 1.1572932 1.1110547 1.12257 1.0456487
1.1992179 1.1603457 1.1761427 1.1078991 1.1334616 1.1178228 1.0930378 1.2091036
1.1809876 1.1142772 1.1151847 1.1730543 1.0678356 1.0849048 1.0782164 1.1913458
1.1306956 1.06408 1.1668769 1.1611563 1.167038 1.0570751 1.1107707 1.0401229
1.1464005 1.1452954 1.0969105 1.1114717 1.189702 1.0819601 1.0661404 1.1025797
00000000: 10b9 933f 622a 923f a230 8a3f c589 843f
00000010: bce5 963f 010f 8c3f e112 8b3f b96e 9a3f
00000020: 7787 9c3f 15a7 8a3f ad24 8b3f a47b 863f
00000030: 8fdf 913f f5ce 943f 1f78 9a3f f39c 8d3f
00000040: 5317 923f 9f7a 873f 0729 8e3f 4b85 903f
00000050: 7b70 883f 7aec 993f 3e3d 9a3f 2965 8b3f
00000060: a158 8b3f 98c2 953f 1588 8c3f 9319 8a3f
00000070: 5d23 8a3f c313 8e3f 6230 893f af03 8a3f
00000080: 3a98 873f bde6 8c3f 4a9e 983f d711 8c3f
00000090: 84b5 8a3f 68aa 943f 57ea 8d3f e78d 903f
000000a0: 204d 923f 9d21 993f 5a59 8d3f 78ee 923f
000000b0: 8a31 903f 4258 8a3f e3f7 8b3f 205f 873f
000000c0: e613 883f 3b52 9c3f c851 883f 08b8 963f
000000d0: aeb0 873f 2c0d 933f e47e 9b3f e9f3 883f
000000e0: 6ca6 893f 80e1 983f 674f 943f fb21 8c3f
000000f0: 8db8 8c3f ae3e 8d3f 35c1 8b3f 1369 8d3f
00000100: f0ad 8a3f 3c91 8f3f 5de7 893f 57dc 8f3f
00000110: d99d 963f fdb3 863f 174b 933f 8ebe 993f
00000120: c52b 893f 6829 8e3f ed6e 8a3f d58e 8b3f
00000130: 45e5 933f 64b4 903f fbe4 963f 8d6c 8c3f
00000140: 9901 a13f eab8 8a3f cc0a 903f e3f1 8b3f
00000150: fe8e 8b3f 07d4 8d3f 011f 9f3f 71fc 973f
00000160: dc1a 9a3f 20c0 933f 1066 8b3f 7878 8d3f
00000170: 2f22 943f 0a37 8e3f 60b0 8f3f d1d7 853f
00000180: f97f 993f 3586 943f d88b 963f a3cf 8d3f
00000190: 4515 913f d114 8f3f aae8 8b3f e8c3 9a3f
000001a0: 9a2a 973f a3a0 8e3f 5fbe 8e3f a526 963f
000001b0: d6ae 883f 29de 8a3f ff02 8a3f 057e 983f
000001c0: a2ba 903f c633 883f 395c 953f c5a0 943f
000001d0: 8061 953f 3d4e 873f bc2d 8e3f bf22 853f
000001e0: 40bd 923f 0a99 923f 9067 8c3f b444 8e3f
000001f0: 2848 983f ab7d 8a3f 4a77 883f 5521 8d3f

bias f4 [128]
0.3582933 0.35615966 0.76232743 0.5543979 0.28670487 0.61465335 0.53593075 0.07875152
0.11854448 0.5765771 0.3922429 0.62114805 0.24397789 0.034879334 -0.06575019 0.3742142
0.36344236 0.60075593 0.5571496 0.34807327 0.6876338 0.23179562 0.020799566 0.35466263
0.62299776 0.4432531 0.643189 0.760707 0.7246587 0.56418675 0.3793979 0.52859896
0.60343665 0.575096 0.0005109346 0.35469565 0.5692407 0.081953034 0.38988096 0.30971852
0.32064018 -0.19217822 0.6052962 0.051010538 0.27304298 0.57508326 0.5174251 0.61963254
0.6146891 0.08163315 0.52422434 0.15763237 0.67778057 0.3411703 0.029378582 0.51503897
0.6396729 -0.12302801 0.3145719 0.44248018 0.31965214 0.60669243 0.41305253 0.22954829
0.48495004 0.33933225 0.6739451 0.5393837 0.07180841 0.73897135 0.40128493 0.106916875
0.6263894 0.6581415 0.5791311 0.6819464 -0.18917248 0.31164646 -0.27581623 0.5257904
-0.08989202 0.4888008 0.30236584 0.34835246 0.6342205 0.5794102 -0.07711477 -0.04896299
0.041240722 0.31711936 0.44560632 0.3157399 -0.033956442 0.5474049 0.15187873 0.9204268
-0.10082689 -0.2103141 0.13435063 0.27595654 0.1868845 0.2956643 0.65885746 -0.118162714
0.19686048 0.31804237 0.2909207 0.11131869 0.44046253 0.61271167 0.48983473 0.016210347
0.36732164 0.6637257 0.10755056 -0.028298218 0.16847157 0.8721168 0.46645463 0.5052533
0.30753234 0.7790969 0.5977022 0.43168253 -0.26539013 0.44604144 0.6619026 0.44510543
00000000: 3872 b73e 8f5a b63e e427 433f 05ed 0d3f
00000010: fbca 923e ec59 1d3f c232 093f 7a48 a13d
00000020: 73c7 f23d 8f9a 133f 10d4 c83e 8f03 1f3f
00000030: 57d5 793e a2dd 0e3d 09a8 86bd 0199 bf3e
00000040: 1e15 ba3e 24cb 193f 5ba1 0e3f a936 b23e
00000050: c508 303f d55b 6d3e da63 aa3c 5796 b53e
00000060: c87c 1f3f 12f2 e23e 09a8 243f b2bd 423f
00000070: 3c83 393f 8b6e 103f 7140 c23e 4352 073f
00000080: d37a 1a3f 7e39 133f 3ef0 053a ab9a b53e
00000090: c2b9 113f fed6 a73d 7a9e c73e 6d93 9e3e
000000a0: f32a a43e 5eca 44be b1f4 1a3f 6df0 503d
000000b0: 4acc 8b3e a838 133f f975 043f 3da0 1e3f
000000c0: 445c 1d3f 482f a73d 9133 063f 616a 213e
000000d0: 0783 2d3f e0ad ae3e 5aab f03c 98d9 033f
000000e0: 9ac1 233f 1cf6 fbbd 910f a13e c38c e23e
000000f0: 72a9 a33e 3250 1b3f 9f7b d33e b50e 6b3e
00000100: 5f4b f83e f5bc ad3e ab87 2c3f 0d15 0a3f
00000110: 4a10 933d 3a2d 3d3f 3875 cd3e 3cf7 da3d
00000120: 0e5b 203f f67b 283f f041 143f 0a94 2e3f
00000130: 6eb6 41be 2090 9f3e c937 8dbe 339a 063f
00000140: 4f19 b8bd 1944 fa3e b2cf 9a3e 415b b23e
00000150: 465c 223f 3a54 143f 59ee 9dbd 6b8d 48bd
00000160: 08ec 283d 785d a23e 8326 e43e a9a8 a13e
00000170: e915 0bbd ba22 0c3f 1986 1b3e 17a1 6b3f
00000180: 547e cebd 945c 57be 3693 093e 2d4a 8d3e
00000190: a65e 3f3e 5061 973e e2aa 283f 4bff f1bd
000001a0: cb95 493e 73d6 a23e 8ff3 943e 0efb e33d
000001b0: 4e84 e13e acda 1c3f 9ecb fa3e 90cb 843c
000001c0: 9511 bc3e ede9 293f 7843 dc3d aad1 e7bc
000001d0: d083 2c3e 0c43 5f3f 24d3 ee3e 4858 013f
000001e0: e174 9d3e e572 473f 0303 193f 7e05 dd3e
000001f0: 37e1 87be 8b5f e43e 7372 293f dce4 e33e

weight f4 [1, 128, 3, 3]
-0.10983053 0.061310325 0.096226454 -0.089126274 0.016982986 0.048350748 0.15239242 -0.19690816
-0.16570525 -0.1088752 0.02854444 -0.15513645 -0.009993099 0.1202227 0.049476456 -0.21440563
0.0143676 0.095580086 0.110880494 0.015541069 0.09612316 0.05708099 -0.11730909 0.0068633584
-0.24021535 -0.050560504 0.07497992 0.095962554 0.10337164 -0.0389984 0.06591808 0.044405784
-0.09784142 0.07090904 0.080955915 -0.13860366 -0.08432093 0.09066294 -0.10969878 -0.13776901
0.090407975 0.06584949 0.021752913 -0.19990045 -0.035325743 0.0074128835 0.037981667 -0.13806465
0.050381638 0.07159012 -0.18508585 0.08968867 0.047752537 0.03488411 -0.13595372 0.08676694
0.04366945 -0.14174215 0.025940664 0.07674619 0.040906902 0.095637575 -0.0006843113 -0.15399061
-0.111628 0.08044465 -0.0018961459 -0.12891775 0.14492485 -0.16588034 0.020134965 0.10634499
-0.22934797 -0.023554718 -0.14107765 0.093199246 0.03940514 -0.13248141 0.16849093 0.10123759
0.038666103 0.07187293 -0.10190331 0.1047608 0.08685679 0.038188953 0.020137686 0.060801875
-0.18486471 0.046205685 -0.089303955 0.063744195 -0.12742364 0.053523332 0.040711112 -0.13199835
0.08746091 0.09299155 -0.08282983 0.09292996 -0.12866794 0.077526204 0.047519863 -0.1344199
0.10814461 0.08299251 0.0050853775 0.08930271 -0.12817436 0.082445815 0.047907066 -0.18771967
0.041030362 0.042660523 0.048813835 0.16204658 -0.06324019 0.016996048 0.047324054 0.010874316
-0.08051514 0.08465793 -0.006597583 -0.16439867 0.14823107 -0.12644958 -0.19273557 0.022009797
0.106469505 0.01952543 0.041761603 0.120029144 -0.025224376 0.0067235944 -0.21928497 0.040620327
-0.122657955 -0.00026184367 0.024803087 -0.124015085 0.008870301 0.1385675 -0.12024151 0.09138113
0.06208627 -0.16780517 0.08082285 0.025656428 -0.007615665 0.08775625 -0.17313762 0.030215729
0.020179845 0.080259144 0.06863332 -0.1300821 0.05787496 0.0378626 -0.11193509 0.08472936
0.1196899 -0.100744 -0.12137582 0.027855514 -0.23311323 0.059041698 0.05618041 0.094539024
-0.022258632 0.018102577 -0.08397141 0.07988979 -0.15645318 0.12032719 0.11382169 -2.0435311e-05
0.034359615 0.11679928 -0.10026734 -0.15311512 -0.14888053 -0.1478116 0.055990737 -0.023701161
0.067548074 0.023188826 0.1342623 0.02607849 0.055702787 0.0002739359 -0.107188545 0.0009866965
0.041615218 0.05756669 -0.23309092 0.09127484 0.06945418 0.028416187 -0.08339543 0.064513884
-0.024785034 -0.2634929 0.057637054 0.021477386 -0.11828906 0.14225467 -0.05424819 0.0112358015
0.08120824 0.10164866 -0.0037523934 -0.0098872315 0.04946985 0.07000477 -0.14586203 0.11653205
-0.11163183 -0.13811831 0.087230265 -0.15270318 0.039294347 0.075805 -0.1592215 0.076617315
0.076040946 -0.122068346 0.13366672 0.24427499 -0.114138976 -0.0065794154 -0.066777445 -0.1078758
0.012171589 -0.07659926 -0.1205471 0.12843433 0.1583826 -0.137939 -0.09981028 0.034437396
-0.117407784 -0.05459773 0.036422275 -0.16949466 0.04137749 0.043148812 -0.12397318 0.05307498
0.11734104 -0.17567457 0.046434164 0.06479819 0.007746461 -0.084462084 -0.28763744 0.06251717
00000000: d4ee e0bd 8920 7b3d 6012 c53d d687 b6bd
00000010: e71f 8b3c 6f0b 463d c20c 1c3e 4ba2 49be
00000020: a3ae 29be f6f9 debd 08d6 e93c 17dc 1ebe
00000030: 18ba 23bc 5237 f63d d3a7 4a3d 268d 5bbe
00000040: 1566 6b3c 7ebf c33d 5015 e33d f89f 7e3c
00000050: 38dc c43d c2cd 693d c03f f0bd 06e6 e03b
00000060: 03fb 75be 8818 4fbd 138f 993d 0488 c43d
00000070: 83b4 d33d c9bc 1fbd 0f00 873d d7e2 353d
00000080: 1561 c8bd c238 913d 37cc a53d 1eee 0dbe
00000090: 74b0 acbd 7ead b93d c1a9 e0bd 5213 0dbe
000000a0: d127 b93d 19dc 863d 2a33 b23c b4b2 4cbe
000000b0: bab1 10bd c6e7 f23b aa92 1b3d d260 0dbe
000000c0: fa5c 4e3d d79d 923d 2587 3dbe b2ae b73d
000000d0: 2a98 433d a4e2 0e3d 7437 0bbe deb2 b13d
000000e0: bdde 323d db24 11be 8481 d43c 1b2d 9d3d
000000f0: ff8d 273d a2dd c33d 5b63 33ba b7af 1dbe
00000100: 399d e4bd 2ac0 a43d 1988 f8ba 0403 04be
00000110: 2e67 143e 89dc 29be 15f2 a43c 67cb d93d
00000120: 32da 6abe d3f5 c0bc a976 10be 3fdf be3d
00000130: 4967 213d 35a9 07be e388 2c3e a755 cf3d
00000140: 5960 1e3d 1d32 933d afb2 d0bd d58c d63d
00000150: f9e1 b13d 056c 1c3d caf7 a43c 630b 793d
00000160: 2d4d 3dbe 2c42 3d3d fee4 b6bd 518c 823d
00000170: 587b 02be 483b 5b3d b2c0 263d 932a 07be
00000180: b51e b33d 5b72 be3d b0a2 a9bd 1052 be3d
00000190: 87c1 03be 0fc6 9e3d 30a4 423d 5fa5 09be
000001a0: ec7a dd3d faf7 a93d 3da3 a63b 57e4 b63d
000001b0: 2440 03be 5ad9 a83d 333a 443d 9639 40be
000001c0: 740f 283d cdbc 2e3d 04f1 473d 8aef 253e
000001d0: 1384 81bd 4c3b 8b3c ded6 413d 302a 323c
000001e0: 1fe5 a4bd 2361 ad3d 8a30 d8bb 2058 28be
000001f0: e3c9 173e 007c 01be 795c 45be e44d b43c
00000200: af0c da3d cbf3 9f3c 370e 2b3d d7d1 f53d
00000210: 5aa3 cebc 9951 dc3b 3d8c 60be 8061 263d
00000220: 1834 fbbd 1048 89b9 d82f cb3c 9ffb fdbd
00000230: bd54 113c a4e4 0d3e 2e41 f6bd 0826 bb3d
00000240: 2c4e 7e3d 1ed5 2bbe 7386 a53d 6e2d d23c
00000250: d48c f9bb 8cb9 b33d fd4a 31be fa86 f73c
00000260: 3450 a53c e85e a43d a08f 8c3d 3e34 05be
00000270: 4b0e 6d3d d015 1b3d 393e e5bd 9686 ad3d
00000280: fa1f f53d df52 cebd e393 f8bd 3f31 e43c
00000290: 3cb5 6ebe b5d5 713d 6e1d 663d ad9d c13d
000002a0: bc57 b6bc db4b 943c 34f9 abbd 429d a33d
000002b0: 4335 20be 1a6e f63d 591b e93d 7f6c abb7
000002c0: abbc 0c3d 7634 ef3d f758 cdbd 36ca 1cbe
000002d0: 2374 18be ed5b 17be 8b56 653d f028 c2bc
000002e0: a556 8a3d 7ef6 bd3c 0e7c 093e 8fa2 d53c
000002f0: 9b28 643d 0e9f 8f39 ab85 dbbd 0a54 813a
00000300: b874 2a3d 0dcb 6b3d 63af 6ebe 4eee ba3d
00000310: fe3d 8e3d 10c9 e83c 39cb aabd db1f 843d
00000320: fc09 cbbc 8be8 86be d514 6c3d 58f1 af3c
00000330: 8941 f2bd 35ab 113e 5a33 5ebd 5e16 383c
00000340: 8150 a63d 2c2d d03d b7ea 75bb 0efe 21bc
00000350: e6a0 4a3d a95e 8f3d db5c 15be 5ba8 ee3d
00000360: 3b9f e4bd e36e 0dbe c8a5 b23d 395e 1cbe
00000370: 1cf3 203d a73f 9b3d f60a 23be 8ae9 9c3d
00000380: 5bbb 9b3d f8fe f9bd eedf 083e 3923 7a3e
00000390: b2c1 e9bd 2398 d7bb 9dc2 88bd fded dcbd
000003a0: 586b 473c 13e0 9cbd 66e1 f6bd 4a84 033e
000003b0: 0c2f 223e e23f 0dbe 5569 ccbd 3a0e 0d3d
000003c0: 7e73 f0bd dfa1 5fbd 862f 153d 0290 2dbe
000003d0: 717b 293d cfbc 303d a7e5 fdbd 2665 593d
000003e0: 8050 f03d 09e4 33be c031 3e3d eab4 843d
000003f0: 06d6 fd3b 75fa acbd 3745 93be 0109 803d
